traced_model.onnx (onnx, 7024 bytes, 5 tensors)

fc1.bias f4 [50]
00000000: f9c8 69be 02e8 403e 0e26 1fbd a3b5 5f3e
00000010: 7944 4ebe cdba f4bc 4f87 0a3e e4b7 d2bd
00000020: a7de 673e c6c4 26be f458 79bd 7c3c 3c3e
00000030: ead9 5dbe ccbc 543d 2f36 a73e 9f39 d13d
00000040: 970c 323e a464 96be a579 323e 6244 a63c
00000050: eac1 1b3e 0492 823e f4fb 1c3c e397 853c
00000060: e397 08be dc9d a2be d644 e43b 62ee 38bd
00000070: a7a2 53be 2afe 0e3c 0a76 643e e10b 05be
00000080: 712e 39be 3660 a7bb 5cf4 113d 892b 9a3e
00000090: 61f2 513e 9c9e 263e 1dc9 473e 7f21 11bd
000000a0: 451f da3c 8c64 06be b997 523d e308 babe
000000b0: 9de3 7ebd 435c 4fbe 1356 e23c 8833 7dbe
000000c0: 03a9 c23d 00d9 803e
-0.22830571 0.18838504 -0.03885465 0.21846633 -0.20143308 -0.02987423 0.13528179 -0.102889806
0.22643529 -0.16286 -0.060875848 0.18382448 -0.21665159 0.051937863 0.32658526 0.102160685
0.17387615 -0.29373658 0.17429216 0.02029628 0.15210691 0.25502026 0.009581555 0.016307777
-0.1333919 -0.31761062 0.0069662137 -0.045149215 -0.20667516 0.00872759 0.22310653 -0.12992813
-0.18084122 -0.005107905 0.03563343 0.3011134 0.20502616 0.16271442 0.19510312 -0.035432335
0.026626239 -0.13124293 0.051414225 -0.36334905 -0.062228788 -0.20250039 0.027628934 -0.24726689
0.09504893 0.25165558

fc1.weight f4 [50, 10]
00000000: 1a9b 8d3e 992b 58be c609 80ba 6e80 493e
00000010: 097d 983e 0f1b a7bd e530 8abe 18ce a5be
00000020: ef2b 163e f695 343e fdb1 2a3e 52d5 d3bb
00000030: f72e bd3d 1e48 02be 6c16 07bd 420d b0bd
00000040: 8454 86be dfc1 7b3e 7893 093e d217 45be
00000050: 0e22 303e 14bb 77be 302b a2be cc09 4a3e
00000060: 9fc3 0d3e fbfe 86be 6fa2 7a3e a020 b03d
00000070: 3dbf 0b3e 6f33 d13d 0956 dcbd 0e24 8cbe
00000080: e8d2 a0be 8f45 5e3e 1941 ae3d acf6 10be
00000090: d48c 243c 747f 2fbe d68a 243d e4d6 72be
000000a0: f401 b7be 9051 82be 5820 773e f9d0 763e
000000b0: 3870 823e 4c9f 1ebe 54df f6bd 8de4 91be
000000c0: b1e9 aa3e bed6 7abd d3d0 f03d 0baa 453e
000000d0: 725d 673e 45f8 3bbe 52d1 9ebe 7d02 d1bd
000000e0: de91 53be 0dc9 3f3e df92 8cbc 0d6d d83d
000000f0: fda8 75be 85bd 423e 285e 8dbe 37ca 1c3e
00000100: 4933 543e 561d 05bd c13f 533e 4f06 773e
00000110: c102 863e 9919 af3d c31e a8bc c250 51be
00000120: cc31 123e 3db3 41bd 7c8c a43d 3349 ffbd
00000130: 00b1 903d 4b59 68be 6880 293e 0843 9bbd
00000140: 060d 693e d328 adbd b23d 34be c51f 1cbe
00000150: cca3 9cbe 8d85 3dbe 983f 523d 03d3 a0bd
00000160: 9139 5ebd d239 933e 604b adbc 74de 953e
00000170: ba7f 803e ee3d 18be 7eec b83c d78a 02bb
00000180: 1b0f 80be dcf6 683e c020 95bb ed96 56be
00000190: 9b19 24be 4b2b 94be 883b 6cbe 5c63 8d3e
000001a0: e800 ddbd f9a4 56be 9760 eabd 2122 df3d
000001b0: f237 153c 6563 1b3e 4127 a4be f47e d7bd
000001c0: f67b 103e 1486 71be 1e5c 3bbe 7db0 c03e
000001d0: a651 d63d 0736 7b3c 2005 9abd a4f6 2cbe
000001e0: 557a 6c3e 871f 273e 40c8 a0be 000d 8d3e
000001f0: 211a 733d 760a 253e 73a8 9bbe bbf2 313e
00000200: 7a13 88be 94bf 81be a831 363b 5568 273e
00000210: 490c 8e3e 2114 1a3d b0cf 8abe 453b abbe
00000220: 465b d23d 2143 7f3e fb01 8bbd ba0c 5bbe
00000230: 64c2 6e3e 636e 6cbc 0a7e 90bd c586 b03e
00000240: 2044 8f3d 9f9e 32be 8e7c 4ebe ba98 a53e
00000250: 3e4d 9a3d 06aa 2ebe 83c9 7cbd 66c2 863d
00000260: 2087 7abe 8537 ae39 f572 81be 2e97 67bd
00000270: 8664 b43c b5e8 10bd e0c5 f73d d571 33be
00000280: 8de2 26bd a886 bebd d317 43be bf7e 85bd
00000290: fede e8bd 3aa4 2cbe bd61 9c3e fb2b 9c3c
000002a0: 159a 333e c2df bcbc c30d b5ba 7507 1abd
000002b0: f068 483e e687 9a3e 3ba9 ad3e 4517 91be
000002c0: c719 b3bc 55a0 bbbe 5a1a f33d 397a 663e
000002d0: 9bee 1fbc 77ec 3dbd 603b 1b3e 4fad dc3b
000002e0: 4036 febd ccbc 973e d896 373e a675 c93d
000002f0: 7d24 1e3e 9a39 65be 2e76 9c3d d267 8d3c
00000300: 95ab a23e dd30 86be 1538 5fbb 8487 b33e
00000310: 77ea 2bbe 7e7c 383c c080 bf3d 7e3c 0d3e
00000320: 57c6 36be e2a3 d33d d72b 813e 1f22 903d
00000330: 395c 28be bf71 c2bc 2e75 6a3e 9b8b 793d
00000340: 2d93 5fbe 9321 423e 4e22 0c3e 509f abbe
00000350: 2fe8 893e 93ee a5bd 26f9 3d3e d560 98bc
00000360: dabb 0bbe e331 4cbe f657 f7bd 8aa0 e0bd
00000370: 2814 21be f507 3d3d 54ab a4bc fac1 413e
00000380: a51e 02be 4d8e 4abe 17c9 b33e e4a1 9e3e
00000390: a4cb 06be 589f a83e fe25 a43d b9b5 ac3b
000003a0: 6030 bdbd 7ed6 bc3d 79f5 89be 39d6 9c3d
000003b0: c69d 233e 5a32 013e 4649 763e f0b9 91bd
000003c0: 4197 2bbe 5ff8 073e aeeb bebd 7279 9ebd
000003d0: 695b e8bd e3d1 63be 4321 7bbe c123 3cbc
000003e0: bfe0 273e c139 c7bd 8aa8 6cbe 0b8c 59be
000003f0: 1174 973e bd23 01be 0bfc 583e 4375 c2bd
0.27657396 -0.21110381 -0.0009768538 0.19677898 0.29782894 -0.08159458 -0.2699043 -0.323838
0.14665197 0.1763533 0.1666946 -0.0064646387 0.092374735 -0.12722823 -0.032980368 -0.08596279
-0.26236355 0.24585675 0.13435161 -0.19247368 0.17200491 -0.24192458 -0.31673574 0.197303
0.13844155 -0.2636641 0.24476026 0.08599973 0.1364717 0.10214888 -0.107585974 -0.27371258
-0.3141091 0.21706222 0.0850851 -0.14156598 0.010043342 -0.17138463 0.040171467 -0.23714787
-0.35743678 -0.25452852 0.24133432 0.24103154 0.2547624 -0.15490454 -0.12054315 -0.28494683
0.33381417 -0.06123995 0.1175858 0.19303147 0.2259424 -0.18356426 -0.31019074 -0.10205553
-0.20661113 0.18729039 -0.017159877 0.10567675 -0.23990245 0.19017608 -0.27610898 0.15311514
0.20722689 -0.03249868 0.20629789 0.241235 0.26173976 0.08549804 -0.02052248 -0.20440963
0.14276809 -0.047290076 0.08034608 -0.124651335 0.0706501 -0.22690313 0.1655289 -0.075811446
0.22758874 -0.08455052 -0.1760166 -0.15246494 -0.30593717 -0.18507977 0.05133018 -0.07852747
-0.05425412 0.2875505 -0.021154106 0.2927128 0.25097448 -0.14867374 0.022573706 -0.001991918
-0.25011525 0.2275042 -0.0045510232 -0.20956011 -0.16025393 -0.2893928 -0.23069584 0.27614868
-0.107911885 -0.2096137 -0.11444204 0.108951814 0.009107577 0.15174635 -0.32061198 -0.10522261
0.14109787 -0.23586303 -0.18296859 0.3763465 0.10464792 0.015332705 -0.07520509 -0.16890961
0.23093541 0.1632062 -0.3140278 0.2754898 0.05935109 0.16117272 -0.30401954 0.1737775
-0.2657736 -0.25341475 0.0027800594 0.16348393 0.27743748 0.037616853 -0.27111578 -0.33443657
0.10271315 0.24927951 -0.06787487 -0.21391574 0.23316342 -0.014430615 -0.0705529 0.3447782
0.06995416 -0.17443322 -0.20164701 0.32343084 0.07534264 -0.17057046 -0.061715614 0.06580047
-0.24465609 0.00033229231 -0.25283018 -0.05654066 0.02202059 -0.035378177 0.120982885 -0.17523892
-0.0407434 -0.093030274 -0.19052057 -0.065183155 -0.113706574 -0.16859522 0.30543318 0.01906394
0.17539246 -0.023055915 -0.0013813305 -0.037604768 0.1957128 0.30181807 0.33918175 -0.28338066
-0.021862878 -0.3664576 0.118702605 0.22507562 -0.009761478 -0.04636809 0.15159369 0.006734527
-0.12412691 0.29636228 0.17928636 0.09836893 0.15443607 -0.22385255 0.076397285 0.01726142
0.31771532 -0.26209155 -0.0034060527 0.35064328 -0.1678866 0.01126015 0.09350729 0.13792607
-0.17849098 0.103339925 0.2522876 0.07037758 -0.1644143 -0.023735879 0.22896263 0.060924154
-0.21833487 0.1895812 0.13684961 -0.33519983 0.26934955 -0.08102145 0.18552074 -0.01860086
-0.13645878 -0.19940905 -0.12077324 -0.109681204 -0.15730345 0.046150167 -0.020101227 0.18921652
-0.12707002 -0.19780846 0.35114357 0.30982888 -0.1316362 0.3293407 0.08015059 0.0052706865
-0.092377424 0.09220599 -0.26945093 0.07658047 0.15978155 0.12616864 0.24051389 -0.07115543
-0.16756918 0.1327834 -0.09322296 -0.077380076 -0.1134556 -0.22248034 -0.24524407 -0.011483134
0.16394328 -0.097278126 -0.23111168 -0.21244828 0.2958074 -0.1261129 0.21189897 -0.09495022

fc2.bias f4 [20]
00000000: 2446 353d 222d 143e b302 99bd bea6 7d3d
00000010: 6c91 c23c 25f1 adbc 36d5 b73b 52ea c7bd
00000020: e858 96bd b6ee b6bd 662e a4bd 284a ebbd
00000030: 0af6 47bd 5ea6 ab3d 2756 74bc 3dc6 e43d
00000040: c1c4 16be 37fb 0b3e 7856 25bc 2afc 0cbc
0.044256344 0.14470342 -0.07471218 0.061926596 0.023750983 -0.02123315 0.0056101335 -0.0976149
-0.07341176 -0.08932249 -0.08016662 -0.114887536 -0.048818626 0.083813414 -0.014913118 0.111706235
-0.14723493 0.1367005 -0.010091417 -0.0086050425

fc2.weight f4 [20, 50]
00000000: ee74 933d b1aa 1dbe d4b2 973c c13f c33d
00000010: 86be e7bd 4b02 26be 21cd 9cbd 0dbc c1bb
00000020: 4910 3e3c 9bb5 a43d 4d51 873d 6ebd 16be
00000030: 7caf 9a3d 9740 23be d8e0 ee3d ae72 72bd
00000040: ca18 f0bd 0cf3 9bbd a4a1 a83d 2caa a03d
00000050: b079 6cbd 1a5e 8dbd 153e c53d 33b5 f0bd
00000060: 3818 bd3d 0efb 7e3d 547f c93c cba3 71bd
00000070: 3203 023e 5255 823d 66fe a63d eab1 3c3d
00000080: 7b44 f63c 4a01 3fbc f752 aebd c7f1 01be
00000090: 730c 7dbd 50c6 9e3c ead2 c6bd a9c7 74bd
000000a0: 8762 d63d 744c d03d d9c6 3fbd 77f6 5ebb
000000b0: 494d d1bd 3d5e 013e 898a 9dbd e9c2 c43c
000000c0: e24b 1d3e 15f8 b23d ceb2 e23b 582f 153b
000000d0: a83b 51bd 8b2b 873d 13ae 13be c91f 263e
000000e0: 4653 96bd b647 0fbe ebf0 ae3d 7d91 eb3d
000000f0: ccfa 8b3d a222 a1bb ee58 c73d 0d03 33bb
00000100: 194b c23d 933b 2a3e dc45 913d 3842 4abd
00000110: d31f 833d 4f50 b23d 2297 133e aeee 603d
00000120: 38ea 393e 52d3 0c3e ffc8 903d 5ce0 273e
00000130: 76fd a03d 0226 b03d 0ef2 c43c 5ed5 13be
00000140: cf29 9c3d f1ff d7bc 56b3 b23c e69d 893c
00000150: 6aac f83c 6be7 bb3d 2a65 923b 6fe5 bebd
00000160: 2ef8 143d c0b6 033d d65a 93bd 9226 3b3d
00000170: 703b 53bd 8803 63bd 9933 fdbc 531f 0dbe
00000180: d47c bdbc 4c24 403c f352 0ebd 9824 1bbd
00000190: ac5a 22bd f708 103c 3d99 e13c 7a74 9fbd
000001a0: f115 01be f130 f9bd 2796 d5bd 9ec5 b8bd
000001b0: 88a4 273d cf32 0f3d 1188 89bd be9d ebbd
000001c0: 2d8b 8c3d 6ad8 81bc 1e59 a4bd c4f8 b33d
000001d0: c0df 373c 65de 2ebe cb5d a0bb a370 5abd
000001e0: 5e6a b93d 47fb d23c aff1 68bd b997 a4bd
000001f0: 666c 06be b10d e0bc 283c f53d 9124 8cbc
00000200: f011 b3bd 9691 eabd 7dca dfbc b772 5c3d
00000210: bdf4 52bc 8132 6dbc ace4 3ebe 4d79 2abe
00000220: 02d4 ae3c fa28 fb3d 9bb4 92bc 39c8 3cbe
00000230: ff4b 833a de4d 1fbe 79e8 dcbd b3a8 393d
00000240: 4db6 bcbd 4c5e cdbd 5bed f5bd 15e5 2ebe
00000250: 2858 b13c 14e4 9bbd a8e4 583d c37b e03d
00000260: c382 4c3c 86b0 20be 70fa b6bc 616e 4cbb
00000270: cc02 63bd c45e e4bd 5cb1 39bd 9aa4 f5bc
00000280: 0fcd afbd a1c8 bf3d 6e87 05be e2f9 1d3d
00000290: b365 633c 4c3d 25bc 4a00 973c df84 73bd
000002a0: 2c89 9d3d 1690 0d3b 658a cb3d 1e46 7cbd
000002b0: 6483 d5bd c5c5 aeba 193f a73d 63c9 cb3d
000002c0: 8485 ef3b 4535 a93d 75fd 32be 9ebc e03d
000002d0: c18e 9b3d cb1a 673d a800 92bd 8c98 b5bd
000002e0: e29f b63d 6b27 d7bd d0e6 b1bd 6c69 12be
000002f0: 52f7 1bbc 98a4 babc 3396 37be c677 10be
00000300: a716 82bd 1786 c03c ce3b 94bd c993 203e
00000310: 9427 503d 9249 ba3d 6581 013e 4797 ecbd
00000320: b66e 0fbe b187 1bbd 2b41 ef3d 2076 77bd
00000330: b756 7b3c 30b6 e33d aeff d9bd e8a9 03be
00000340: 6b87 36bd 08cc 25be fe83 01be 4edf d0bd
00000350: 6612 a2bc dfbc 313e 8200 ac3d d834 f63d
00000360: 58b0 9d3d 24c2 f8bd 4a1b 29bd 68ad 1dbe
00000370: a88b 843c 5a05 5ebd b994 303e 18cd 6abc
00000380: 72ae 633d c790 9bbd 8392 893d 71e5 e6bd
00000390: c9d5 e5bc ddf1 c13c 1671 e3bd e60a 8cbd
000003a0: 6daa b3bd d5e8 fc3c 3c1c 093d d958 bf3d
000003b0: 3af8 e43d efba afbd 074f 28bd fa65 1b3e
000003c0: 9975 9e3d 01b5 3fbb 8d3d b6bd b019 5d3e
000003d0: abe5 4f3d 1a9b c33b 32a1 5f3c ea37 1bbd
000003e0: df00 94bd 1418 d63d 1af9 553e dea0 b6bd
000003f0: ffff eebb fdf8 dbbd dd21 49be cce1 9abc
0.07200037 -0.15397145 0.01851789 0.095336445 -0.11315636 -0.16211812 -0.07656313 -0.00591231
0.011600562 0.08042451 0.06607304 -0.14720699 0.07553002 -0.15942608 0.11663979 -0.0591914
-0.11723478 -0.07614717 0.082339555 0.07844958 -0.057733238 -0.06902714 0.09630982 -0.11753311
0.09233135 0.062251143 0.024596848 -0.058994096 0.12696531 0.0636393 0.081539914 0.04606811
0.03006195 -0.011658022 -0.08511918 -0.12689887 -0.06177945 0.019381672 -0.097081974 -0.059760723
0.10468011 0.10170832 -0.046820495 -0.0034021416 -0.10219819 0.12633605 -0.07692439 0.024018722
0.15360978 0.08738724 0.006918288 0.0022763815 -0.051082283 0.06600102 -0.14421873 0.16223063
-0.07340102 -0.139922 0.08542045 0.11502359 0.06834945 -0.0049174586 0.09733759 -0.002731505
0.0948698 0.16624288 0.07093403 -0.049379557 0.06402554 0.08706724 0.14413121 0.054915123
0.18155754 0.13752487 0.07069587 0.1639418 0.07860844 0.086009994 0.024041202 -0.14436862
0.07625162 -0.02636716 0.02181403 0.016798925 0.030355651 0.09174999 0.004467626 -0.09321105
0.036369495 0.032156706 -0.0719506 0.04569108 -0.051570356 -0.05542329 -0.030908393 -0.1378148
-0.023130812 0.011727404 -0.034747075 -0.037876695 -0.039637253 0.0087912 0.02753889 -0.07785888
-0.12606026 -0.12167538 -0.1042903 -0.090220675 0.040928394 0.034960564 -0.06715406 -0.11504696
0.06862483 -0.015850265 -0.0802481 0.08787683 0.01122278 -0.17077024 -0.0048939935 -0.053330075
0.09053491 0.025754584 -0.056871112 -0.08036751 -0.13127288 -0.027350279 0.119743645 -0.01710728
-0.08743656 -0.114535496 -0.027318234 0.053820338 -0.012875733 -0.014477373 -0.18641919 -0.16647835
0.021341328 0.12263675 -0.017908385 -0.18435754 0.0010017155 -0.15557048 -0.10786528 0.0453269
-0.092144586 -0.10027751 -0.120081626 -0.17079575 0.021648481 -0.07611862 0.05295244 0.10961106
0.012482348 -0.15692338 -0.022336215 -0.003119372 -0.05542259 -0.111508876 -0.04533516 -0.029985715
-0.08584034 0.09364439 -0.13039944 0.038568385 0.013879227 -0.010085415 0.018432755 -0.059452888
0.07692179 0.0021600774 0.09938506 -0.061590306 -0.104254514 -0.0013334086 0.08166332 0.09950521
0.0073096175 0.082621135 -0.17479499 0.10973476 0.075955875 0.056422036 -0.071290314 -0.08866987
0.08917214 -0.10505565 -0.08686602 -0.14298028 -0.009519415 -0.022783563 -0.1792839 -0.1410819
-0.06351977 0.023501439 -0.07237969 0.15681376 0.050818995 0.09096064 0.12647016 -0.11552291
-0.14007077 -0.037971202 0.11682352 -0.060415387 0.015340499 0.11118734 -0.1064447 -0.12857783
-0.04456274 -0.16191113 -0.12648007 -0.10198842 -0.019784164 0.17357205 0.08398534 0.12021798
0.076996505 -0.121464044 -0.04128579 -0.1539818 0.016179875 -0.054204322 0.17244233 -0.014331125
0.055586286 -0.075959735 0.06717398 -0.11274231 -0.028056042 0.0236749 -0.11105554 -0.06838016
-0.087727405 0.030872742 0.033474192 0.09343118 0.11180158 -0.08580577 -0.04109099 0.1517562
0.07737274 -0.0029252174 -0.08898459 0.2159183 0.050756138 0.0059694173 0.013649272 -0.03789512
-0.07226729 0.10453811 0.20895806 -0.08917402 -0.0072937007 -0.1074085 -0.19641824 -0.018906496

fc3.weight f4 [1, 20]
00000000: da5b 323d ef2d 16be 9212 773d 8ba0 c43d
00000010: 8454 ddbd e50b 883d a0de c43d e969 173a
00000020: d2f6 bf3d 5f22 1ebe 605c 95be 88db 813b
00000030: 9dfa c13d f603 08bc 014e 153e 90a2 a9bb
00000040: a317 18bd de85 8dbd bb08 173e 3010 6b3c
0.043544628 -0.1466596 0.060320444 0.09600934 -0.10807136 0.06642894 0.09612775 0.0005775975
0.09373249 -0.15442799 -0.2917204 0.0039629377 0.09471629 -0.008301726 0.14580537 -0.0051768497
-0.037131917 -0.06910299 0.14749424 0.014347121
